Lab01_NeuronNetworks/checkpoints/MLP_1_Layer_best_model.pth (torch, 33501 bytes, 2 tensors)

linear.weight f4 [10, 784]
0.030520592 0.014274586 0.007119216 -0.0074942075 0.003888283 -0.014367513 0.012600619 0.018937912
-0.019590158 0.004864417 0.017233111 -0.023637539 0.031117717 -0.00083760766 -0.008687119 -0.009460369
0.01908286 0.01594191 -0.028185472 -0.029178433 0.0293237 0.024002634 0.011949599 0.028647576
0.005529072 -0.03039753 0.018963236 0.02860621 -0.0075431988 -0.013166798 -0.005629603 0.0032165945
-0.02655943 0.019933492 0.005176407 0.008212498 0.030547455 -0.016761478 -0.002695291 -0.005400537
-0.014182032 0.03422319 -0.026076134 -0.017464614 -0.022764228 0.013212241 0.006046308 0.024769735
-0.031997237 0.018478705 0.0098504955 -0.027009271 0.024190817 0.035608854 -0.028060932 -0.019195218
0.020868663 0.0058757886 -0.023849523 0.0011890228 0.0026358 0.0012323391 -0.020810384 -0.03527992
0.032821953 -0.0011989613 -0.03901989 -0.009853154 0.0100663025 0.015569417 -0.0035601866 -0.05282141
-0.061060898 -0.025440633 -0.03945153 0.006017007 -0.01788301 -0.025255637 -0.0037318438 -0.019453948
-0.0123802 -0.029731905 -0.020731047 -0.024043228 -0.007947922 -0.022483781 -0.028517915 -0.009243063
0.013219058 0.005658717 -0.02752524 -0.00079880893 0.001744758 -0.008023388 -0.018006809 -0.022949774
-0.047911283 -0.066834785 -0.030157411 -0.072439805 -0.042317666 -0.092730016 -0.08351323 -0.06570385
-0.03402975 -0.052784562 -0.04562005 -0.027698196 -0.019232692 -0.006837102 -0.01975933 0.0023664162
0.0099615455 0.018850693 -0.0047062184 -0.033793863 -0.019156007 0.025272416 0.020555466 -0.04926514
-0.041664325 -0.0767411 -0.028084433 -0.054789126 -0.06604262 -0.061275993 -0.03920507 -0.017619949
-0.04509264 -0.07172224 -0.07142792 -0.06558832 -0.03746696 -0.051430568 -0.043171916 -0.013344021
-0.0070512826 0.009969917 -0.027692514 -0.0039915293 -0.012767265 0.030939516 -0.015856164 0.030728815
-0.035783917 -0.0035690342 -0.028139612 -0.0649879 -0.027162982 -0.10391396 -0.059657875 -0.04965314
-0.005525533 0.05834476 0.069198765 0.10465117 0.03522177 0.09113588 0.06677939 0.017459514
-0.035499014 -0.042218767 -0.035626687 -0.07394366 -0.0030531038 0.0030786349 -0.032401517 -0.011248625
0.015657175 -0.020347835 -0.027316818 0.029264688 0.023772888 -0.011391473 -0.06535528 -0.050213784
-0.10844794 -0.08018212 -0.10113505 -0.023683868 0.023219083 0.0481681 0.032694146 0.0554448
0.10658434 0.09612504 0.08444436 0.03242455 0.021233616 0.019897595 0.03746405 -0.07665432
-0.098609 -0.04473183 0.0204587 -0.02861338 -0.01778488 0.017000781 0.008744412 0.009217862
-0.0458129 -0.010234416 -0.022220334 -0.06770792 -0.110495254 -0.08456302 -0.0041138437 -0.031737376
0.030860528 -0.012433401 0.044911604 0.075203165 0.127521 0.11264292 0.1327766 0.07467185
0.04002631 -0.009251025 0.045777354 0.008031776 -0.05299168 -0.0651803 0.01316676 -0.03405575
-0.019818036 -0.03422631 -0.009924125 -0.010048715 0.007511931 -0.07479971 -0.070298105 -0.054292616
-0.0874785 -0.035609208 -0.028045863 -0.036349513 -0.034548394 0.022599965 0.006797721 0.06042725
0.10018878 0.15458757 0.13625869 0.05947672 -0.008876771 -0.02332178 0.05577356 0.047783643
-0.055272657 -0.03927486 -0.036280632 0.011200728 0.034258526 0.024389282 -0.0086590145 -0.040068265
00000000: 5206 fa3c f4df 693c 5048 e93b f891 f5bb
00000010: 90d2 7e3b b865 6bbc d472 4e3c ae23 9b3c
00000020: 8a7b a0bc b065 9f3b 742c 8d3c 83a3 c1bc
00000030: 95ea fe3c e692 5bba 6b54 0ebc aaff 1abc
00000040: a853 9c3c 9c98 823c 38e5 e6bc 9c07 efbc
00000050: 4238 f03c 2ca1 c43c 40c8 433c 52ae ea3c
00000060: 382d b53b 3e04 f9bc ca58 9b3c 9257 ea3c
00000070: f02c f7bb 8eb9 57bc 8878 b8bb 80cd 523b
00000080: 2993 d9bc 904b a33c d99e a93b b78d 063c
00000090: a83e fa3c 5e4f 89bc 7ba3 30bb fdf6 b0bb
000000a0: c15b 68bc 9e2d 0c3d 9e9d d5bc f311 8fbc
000000b0: 0c7c babc 2878 583c 1c20 c63b e6e9 ca3c
000000c0: 890f 03bd a760 973c f963 213c 8c42 ddbc
000000d0: d22b c63c 97da 113d 0ae0 e5bc 4a3f 9dbc
000000e0: c2f4 aa3c b089 c03b 1360 c3bc fcd8 9b3a
000000f0: 63bd 2c3b 7086 a13a 8a7a aabc ad81 10bd
00000100: 5070 063d 7726 9dba 52d3 1fbd 206f 21bc
00000110: 22ed 243c de16 7f3c 0552 69bb 435b 58bd
00000120: fe1a 7abd e068 d0bc ed97 21bd 502a c53b
00000130: 647f 92bc e9e4 cebc f391 74bb e35d 9fbc
00000140: 53d6 4abc 5390 f3bc 28d4 a9bc 4ef6 c4bc
00000150: 0038 02bc e82f b8bc 679e e9bc 3770 17bc
00000160: bf94 583c c26c b93b 9d7c e1bc 2967 51ba
00000170: 5db0 e43a 8774 03bc 0483 93bc 2a01 bcbc
00000180: 9f3e 44bd ade0 88bd ad0c f7bc 525b 94bd
00000190: 4a55 2dbd 3ce9 bdbd fc08 abbd bd8f 86bd
000001a0: c762 0bbd a034 58bd 17dc 3abd 54e7 e2bc
000001b0: e18d 9dbc c509 e0bb 52de a1bc e015 1b3b
000001c0: c035 233c c56c 9a3c 9f36 9abb 6f6b 0abd
000001d0: 0fed 9cbc 1908 cf3c f063 a83c 3eca 49bd
000001e0: 36a8 2abd 702a 9dbd 5311 e6bc 906a 60bd
000001f0: 5a41 87bd 89fc 7abd 7f95 20bd b657 90bc
00000200: 0fb3 38bd 1ce3 92bd cd48 92bd 2b53 86bd
00000210: f476 19bd dca8 52bd 09d5 30bd e1a0 5abc
00000220: 720e e7bb dd58 233c 69db e2bc 60cb 82bb
00000230: ca2d 51bc de74 fd3c c9e4 81bc ffba fb3c
00000240: 2892 12bd 75e6 69bb 0b85 e6bc 6018 85bd
00000250: e784 debc d8d0 d4bd d15b 74bd 1761 4bbd
00000260: 880f b5bb eafa 6e3d 15b8 8d3d 5a53 d63d
00000270: b444 103d 73a5 ba3d a2c3 883d 4107 8f3c
00000280: 6a67 11bd 96ed 2cbd 4aed 11bd c66f 97bd
00000290: 9516 48bb ecc2 493b 74b7 04bd 274c 38bc
000002a0: 7a43 803c 81b0 a6bc 85c7 dfbc 80bc ef3c
000002b0: 5cbf c23c 4da3 3abc fdd8 85bd f8ac 4dbd
000002c0: f419 debd 8636 a4bd e51f cfbd ac04 c2bc
000002d0: f235 be3c ea4b 453d 4cea 053d 161a 633d
000002e0: e448 da3d 34dd c43d 2af1 ac3d 9bcf 043d
000002f0: 1ff2 ad3c 4800 a33c e773 193d f1fc 9cbd
00000300: 84f3 c9bd b938 37bd 0199 a73c 9b66 eabc
00000310: 99b1 91bc 3945 8b3c b944 0f3c 8406 173c
00000320: 4fa6 3bbd 41ae 27bc 6b07 b6bc 73aa 8abd
00000330: 564b e2bd 602f adbd 6ccd 86bb 0dff 01bd
00000340: 38cf fc3c 77b5 4bbc 3bf5 373d 1e04 9a3d
00000350: dd94 023e 55b1 e63d 97f6 073e 8eed 983d
00000360: a1f2 233d 9c91 17bc 0981 3b3d b697 033c
00000370: ce0d 59bd 407d 85bd 65b9 573c 0b7e 0bbd
00000380: 6f59 a2bc e330 0cbd cc98 22bc 5ea3 24bc
00000390: a526 f63b 9730 99bd 74f8 8fbd ef61 5ebd
000003a0: ee27 b3bd f6da 11bd 70c0 e5bc 3ae3 14bd
000003b0: 9e82 0dbd 9023 b93c 6bbf de3b 9082 773d
000003c0: c62f cd3d 344c 1e3e 6687 0b3e dc9d 733d
000003d0: e06f 11bc 510d bfbc d172 643d c8b8 433d
000003e0: 9565 62bd adde 20bd 009b 14bd 4283 373c
000003f0: ab52 0c3d 08cc c73c 8ade 0dbc 9f1e 24bd

linear.bias f4 [10]
-0.33314303 0.19346966 -0.13699499 -0.31606683 -0.03033601 0.519723 -0.17622201 0.19864644
-1.0480294 -0.26170957
00000000: b991 aabe e91c 463e 6a48 0cbe 83d3 a1be
00000010: 3983 f8bc 910c 053f 8b73 34be f969 4b3e
00000020: d425 86bf ccfe 85be
