Lab01_NeuronNetworks/checkpoints/MLP_3_Layer_best_model.pth (torch, 440841 bytes, 6 tensors)

linear1.weight f4 [128, 784]
000000 28 7d bc bc 54 ac 1e 3c f0 cf ff 3b 58 a7 0e bd
       -0.023008898 0.009684641 0.0078067705 -0.03482756
000010 25 f9 d1 bc 38 f9 ab bb 0a bb 17 bc a8 95 9f 3b
       -0.025631497 -0.005248215 -0.009260902 0.0048701353
000020 00 4b d6 3c 45 dd 0c bd 92 d3 bf 3c 35 c8 d8 bc
       0.02615881 -0.034390707 0.023416314 -0.026462654
000030 11 42 ff bb c5 8d bb bc 12 21 08 bd 3b 91 ef bc
       -0.007789858 -0.02289475 -0.033234663 -0.029244056
000040 ae 33 ae bc 00 12 2d b9 d8 39 06 bd 80 23 00 3b
       -0.021264877 -0.00016505271 -0.032770008 0.001955241
000050 ca 32 4b bc 37 f5 01 bd 38 71 c6 bc b4 4e 5e 3c
       -0.012402246 -0.031727996 -0.024223909 0.013568569
000060 7c 39 7d 3c 2a fd eb bc f3 f4 bd bc ae 13 39 bc
       0.0154556 -0.028807241 -0.02318809 -0.011296196
000070 ff e9 09 3d 93 b6 0d 3d 99 22 02 3d 20 96 29 3b
       0.03367042 0.034597944 0.031771276 0.0025876835
000080 ca f5 09 bd e4 f5 fc b8 26 6a 19 bb 87 9c af 3b
       -0.03368167 -0.00012062097 -0.0023409217 0.0053592357
000090 14 fa e4 3b e5 76 02 bd 55 5a e1 bb af 8f b8 3c
       0.0069878194 -0.031851668 -0.0068772235 0.022529451
0000a0 6b c4 b5 3c 95 84 7a bb 01 ca f0 3c af 75 68 3c
       0.022188386 -0.0038225998 0.029393198 0.014188214
0000b0 d2 03 4f 3c 95 77 bf bb 28 22 b4 bc f7 39 85 bc
       0.012635188 -0.0058431127 -0.021988943 -0.016262991
0000c0 b0 5f 6f 3c fa cb 3f 3c ad b9 6d 3b 05 80 ad bc
       0.014610216 0.011706347 0.0036274001 -0.021179209
0000d0 9c c4 69 bc 63 f9 c1 bc 0e 4c f5 3c dd bf 0e 3d
       -0.014268067 -0.023678487 0.029943492 0.034850944
0000e0 b8 76 f4 3b 18 e5 37 bc 0b 12 c7 3c 4d d2 ba 3b
       0.0074604414 -0.011224054 0.024300596 0.0057013393
0000f0 1a c7 d4 ba ed 14 5d bc a1 b2 f6 bc f0 ea 75 bb
       -0.0016233653 -0.013493759 -0.030114474 -0.0037524067
000100 02 42 01 bd 6c 28 cc 3c e7 3a 00 3d 80 b1 ef bc
       -0.03155709 0.024921618 0.031306174 -0.029259443
000110 23 4d fe bc a0 c8 17 3c cc 8c db bc 7b 05 0e 3d
       -0.031042641 0.009264141 -0.026800536 0.034673195
000120 3e f8 a4 bc 1d da b7 bb 35 57 c5 3c b9 74 11 3d
       -0.020137902 -0.005610718 0.024089435 0.035511706
000130 97 74 9f 3c a9 4a 8f bc 2f a0 09 bd ff 63 bc 3c
       0.019464774 -0.017491655 -0.03360003 0.0229969
000140 aa cc ab 3c ae ef 0e bd 38 6b 58 3c 70 11 07 bb
       0.020971615 -0.034896545 0.013209157 -0.0020609759
000150 d2 f6 b1 3c 6e 27 f9 3c 19 78 05 3d 1f 55 4e bc
       0.021724138 0.03041431 0.032585237 -0.012593537
000160 88 b2 a2 3c 38 72 00 bd b0 52 98 3b 24 c0 5d 3c
       0.019860521 -0.031358927 0.004648529 0.013534579
000170 a5 bf b5 3c 72 15 5a 3c f9 6d a1 3c 1b 8c 26 3d
       0.02218611 0.013310777 0.01970576 0.04066096
000180 46 aa 07 bd 1e c3 77 3c 44 60 be bc 90 af 4e bc
       -0.03312137 0.015122203 -0.023239262 -0.0126151
000190 d2 2c c6 bb 56 c7 99 bb f8 7a 0d bd ca 58 01 bd
       -0.0060478235 -0.004692952 -0.0345411 -0.031578816
0001a0 7f 6b cc bc 0d 5d 08 3c f3 79 b9 3c 05 b0 fd 3c
       -0.024953602 0.008322966 0.022641158 0.030967722
0001b0 9e 1d d6 3c a3 8f e5 3c 41 b1 61 bb 9c 8c 08 bc
       0.02613717 0.028022593 -0.0034437927 -0.008334305
0001c0 28 ef e8 bc f9 3b a1 bc 6a 06 03 3d d0 24 6c 3b
       -0.028434351 -0.019681918 0.03198854 0.0036032684
0001d0 55 79 03 bd 82 93 de 3b 93 61 c6 bc c2 1b 53 bc
       -0.032098133 0.0067924866 -0.024216449 -0.012885036
0001e0 68 73 a4 3a 84 11 88 ba ca 75 71 bb 3e 6a 1f 3c
       0.0012546601 -0.0010381197 -0.003684389 0.00972992
0001f0 2f 22 ab 3c c7 e6 6d 3b 94 bb dc 3c 96 97 b6 bc
       0.020890323 0.0036300884 0.026944913 -0.022289079
000200 87 79 9d bc 20 62 6d ba 42 e5 a0 bc 31 5b 4f bc
       -0.019222988 -0.0009055454 -0.019640569 -0.012656019
000210 08 06 a6 3c 4c f3 4e 3c b7 22 01 bb eb bb d9 3c
       0.020266548 0.012631249 -0.001970453 0.026578864
000220 9e 4f 97 3c 3f 54 05 bb a5 cf 9b bc 0a 75 db 3c
       0.018470582 -0.0020344404 -0.019019911 0.026789207
000230 e0 1c f6 ba 9d ec 0a bd e5 92 65 3c 29 fd 94 3b
       -0.0018776916 -0.03391706 0.014012073 0.0045467806
000240 f6 c3 5c bc b0 41 dc bc 21 ff 51 bc 8a 51 d7 3c
       -0.013474455 -0.026886791 -0.012817175 0.026283998
000250 55 01 03 3c 95 9b 00 3d b4 d4 cb bc 85 9b cd bb
       0.007995923 0.031398375 -0.024881698 -0.006274643
000260 ad d7 0a 3d c9 68 cf 3c cf 79 99 3c 86 3f 23 3d
       0.03389709 0.02531852 0.01873484 0.039855503
000270 b7 11 42 3d 8e 48 7c 3c 16 ae 56 bb 85 31 df bb
       0.047380175 0.015398158 -0.0032757572 -0.006811323
000280 46 13 1f 3c 58 ba ef 3c dc d9 b4 ba 5f a1 aa 3c
       0.009709185 0.02926366 -0.0013797837 0.0208289
000290 bf c2 49 bb c5 95 be bb 4e 0b 17 3c 86 6d cd bc
       -0.0030786244 -0.0058161938 0.009219004 -0.025076639
0002a0 40 de 6e 3c a0 a0 df bc 00 28 d5 bc 29 27 9c 3c
       0.014579356 -0.027298272 -0.02602005 0.019061642
0002b0 66 7a da bb 3a 37 ba 3c a0 98 cd bc 3c a3 06 3c
       -0.006667423 0.022731412 -0.025097191 0.008217629
0002c0 7c 91 86 bc 14 6f d1 bc b5 de ef bc b0 e4 f7 bc
       -0.016426794 -0.025565661 -0.029281 -0.030260414
0002d0 76 3f 8e bc 84 e5 a5 bc 2c 86 c3 bb 05 63 bf bc
       -0.017364245 -0.020251043 -0.0059669223 -0.023362646
0002e0 9d cc b0 bc 30 db 39 bd 71 65 03 bd e4 dc 95 3c
       -0.021581942 -0.04537505 -0.032079164 0.018293805
0002f0 e9 46 cb bc 13 73 5e bb d0 16 90 bc bd cf 54 3d
       -0.024814086 -0.0033943101 -0.017589003 0.051955927
000300 fb 43 95 3b 24 f9 76 bc cc 0c 9b bc ee 22 dc 3c
       0.004555223 -0.015074048 -0.018927 0.026872125
000310 c0 06 cd 3a 69 22 1c bc 4d d0 6e 3c 49 fa 20 3c
       0.001564227 -0.009529688 0.01457603 0.009825298
000320 cf 4c 98 bb 34 fa 71 bc 0e 92 52 bc 62 5d 86 3c
       -0.004647828 -0.014769126 -0.012852205 0.01640195
000330 39 64 08 bc a7 47 8e bc 8b cc 0e bc 1e a4 f5 bc
       -0.008324676 -0.01736815 -0.008715759 -0.029985484
000340 d1 87 8e bd 0e e0 8b bd e0 18 bc ba 1c 92 52 bd
       -0.06959499 -0.068298444 -0.0014350675 -0.051408872
000350 cf 88 03 bd ff dd 78 bc d0 9b a7 bc ba f7 42 bd
       -0.032112893 -0.015189647 -0.02046004 -0.04759953
000360 7a ba ff 39 6f fb 02 bd dc d5 f3 3c a6 a8 74 3b
       0.00048776326 -0.031978067 0.029765062 0.0037331968
000370 a4 6a 38 3d 8b b3 19 3a 08 ff 05 bd ac 4f b1 3c
       0.045023575 0.0005863241 -0.03271392 0.021644436
000380 63 32 1f bc f5 88 0b 3c c9 d0 3e bc e5 d1 02 bc
       -0.009716603 0.00851654 -0.011646458 -0.007984613
000390 d8 a2 bf 3c 07 44 53 3c 07 6a 0a bd 28 9c 2b 3b
       0.02339308 0.012894637 -0.03379252 0.0026185606
0003a0 80 93 16 3c c6 41 f4 bc 30 72 be 3a e1 5d 40 bd
       0.00919044 -0.02981652 0.001452988 -0.04696453
0003b0 8e 6c 2a bc ef 4d 87 bc f6 46 12 3c 7f 0f f9 bb
       -0.010401858 -0.016516654 0.008928051 -0.007600724
0003c0 85 3f 11 3c f4 c9 04 bd bf 3a 2e bd bc 50 d3 bc
       0.008865242 -0.03241916 -0.042536493 -0.025795333
0003d0 83 f2 13 bc aa 34 0a 3d e9 02 9e 3c 27 e8 5f ba
       -0.009029987 0.03374163 0.019288497 -0.00085413683
0003e0 64 1c 7d bc a0 ac 02 bd 72 ea 91 bc 4a 5c cd bc
       -0.015448663 -0.03190291 -0.017811988 -0.02506842
0003f0 42 5c 17 3c 52 94 c6 b8 96 20 6a 3c d6 89 e2 3c
       0.009238305 -9.4690025e-05 0.014289996 0.027653616

linear1.bias f4 [128]
000000 15 c0 c8 3b 4f c2 42 3c fc 77 bb bd 55 fd 11 3d
       0.0061264136 0.011887147 -0.091537446 0.035641987
000010 69 8d 52 bd ef 8d 14 3d 5c 88 57 bc 42 bb c5 3d
       -0.05140439 0.03626817 -0.013155069 0.09654857
000020 44 08 63 3d 6d 64 b3 3d 93 6c 55 bc 5a 54 da 3d
       0.055427805 0.08759389 -0.013026374 0.1066062
000030 a4 85 5b 3d 16 00 9a 3b 02 00 bd bc e5 6b 6c bd
       0.053594247 0.0046997173 -0.023071293 -0.057720084
000040 d2 93 a3 3c c6 54 23 3c f8 bf cc 3d d3 04 f0 3c
       0.019967947 0.009968942 0.09997553 0.029299175
000050 e0 e0 7c 3d 6c 4f 1e 3d 85 c3 9a 3b f6 40 2f 3e
       0.061737895 0.03864996 0.004723015 0.17114624
000060 bd cc 9f 3d 11 90 9d 3c 75 b0 80 3d eb 31 a5 3d
       0.078027226 0.019233735 0.062836565 0.08066162
000070 1e 26 ce 3c eb 23 d1 39 a1 7d dc 3d 12 b1 21 3d
       0.02516466 0.00039890347 0.10766149 0.039475508
000080 cb c9 d3 3c 1c 38 a6 bd 0f cf 1d 3d a6 a2 f2 ba
       0.025853058 -0.08116171 0.038527545 -0.0018511608
000090 df 5b 24 3d 0e 77 3f 3d 9e 05 df 3c 23 f5 a6 3c
       0.040126678 0.0467444 0.027224358 0.020380562
0000a0 e9 10 06 3d 65 1d 96 ba 5f ce 65 bd 9b 24 0a 3d
       0.03273097 -0.0011452852 -0.056105014 0.033726316
0000b0 8e 80 f5 3b 9d 6c c4 3c 41 ad 19 bd 6a 4a b9 3d
       0.0074921316 0.023977572 -0.037518743 0.090473965
0000c0 b0 15 24 3d 12 5a 17 3d 4e 4c 54 3d 4e 21 73 3d
       0.040059745 0.036951132 0.051830582 0.059357934
0000d0 27 26 03 bd b1 9e 98 bd 1f 26 5e 3d 89 6a e4 3d
       -0.032018807 -0.07452143 0.054235574 0.111531325
0000e0 e8 97 a3 3d 75 66 8b bc 70 ff 6f 3d 11 ea 15 3d
       0.07987958 -0.017016629 0.058593214 0.036600176
0000f0 ac 20 ad 3d fc b1 b7 3c e9 0d b5 bc b2 c5 56 3c
       0.08453497 0.022423737 -0.02210136 0.013108658
000100 34 16 95 bd c7 87 b5 3a 38 cd 36 3d 39 3a 01 bd
       -0.072796255 0.0013849669 0.044629306 -0.031549666
000110 bc 61 38 3d 94 9e 86 3d 51 5d 88 3d 5b 48 44 bd
       0.04501508 0.06573215 0.06658424 -0.047920566
000120 aa 35 94 bd b6 fd a6 bd 9a c2 8d ba 27 9e f4 3d
       -0.07236798 -0.0815386 -0.0010815442 0.11944228
000130 8e 3b d0 3c 97 cf ff bc 4b 80 f4 3c 0c fd 39 3d
       0.025419023 -0.031226916 0.029846331 0.04540734
000140 84 c4 51 bd 94 4d bc bc ac b0 49 3d 6e 4c fd bc
       -0.051212803 -0.02298621 0.049240753 -0.030920234
000150 07 12 c0 3c 2a 3f 82 3d bc 0a 17 3d 0b b8 93 bd
       0.023446096 0.06359704 0.03687547 -0.07212838
000160 36 7b 8b bc 7b 42 5f bd 83 d0 53 3d ae 5d c3 bc
       -0.017026525 -0.05450676 0.051712524 -0.02384838
000170 42 9e 55 3c 2a 65 3a 3d af 7f fa 3c f6 5c 9b bb
       0.01303822 0.045506634 0.030578462 -0.0047413064
000180 c2 10 80 3c 2c 14 6c bc 18 02 b1 3a 96 71 1d bd
       0.01563299 -0.014409106 0.0013504652 -0.038438402
000190 f8 74 06 3d d1 65 20 3d 02 1a c6 3c 90 36 8f 3d
       0.032826394 0.0391596 0.024182323 0.06992829
0001a0 17 e6 39 3d a7 5b 9c 3d f2 29 9c 3c 80 4b 62 3d
       0.045385446 0.07634669 0.01906297 0.055247784
0001b0 05 a8 b8 3b 24 fe 6b bc 21 b4 75 bd 43 41 0f 3d
       0.005635264 -0.014403854 -0.059986237 0.034974348
0001c0 cf 5a cb 3b 37 a2 5c 3c fc db 5a 3d 77 45 d6 bd
       0.0062058936 0.013466409 0.05343245 -0.10462468
0001d0 a3 24 dd 3c e4 05 8a 3d 05 6d 04 3d 59 66 e9 3c
       0.026995009 0.06739405 0.03233053 0.028491186
0001e0 d0 4b 1c bd 18 2d 9b 3b 5c a2 46 bd 64 b8 ab 3d
       -0.038158238 0.0047356 -0.04849468 0.08384779
0001f0 58 53 1b 3d 14 d7 da 3c e2 df 03 3d 59 a7 3e 3d
       0.03792128 0.026713885 0.032195933 0.046546314

linear2.weight f4 [64, 128]
000000 2e 09 8a bd 82 42 80 3c 8f 68 fe 3b 42 96 d0 bd
       -0.06740032 0.015656713 0.007763929 -0.101849094
000010 1d 45 07 be ed 28 1b 3d 54 fb 0a 3e 98 df 44 3d
       -0.13209958 0.037880827 0.13572437 0.048064798
000020 51 9e 38 3e 34 9b ce bd 9a c5 3b bc e8 24 83 bd
       0.18029143 -0.100881964 -0.011460686 -0.06403524
000030 7f 66 1f be c6 64 be 3d 87 c4 01 3e 70 d7 cc 3d
       -0.15566443 0.09296565 0.12672625 0.10002029
000040 00 88 c2 bd 2f 40 10 3e 76 ec 12 bb e7 60 8e bd
       -0.09498596 0.14086984 -0.0022418774 -0.069520764
000050 f4 73 ed 3c f5 d9 57 3d 46 2a ae 3d f6 6a b1 bd
       0.028985955 0.052698094 0.08504157 -0.08662979
000060 bf b3 35 bd 80 a9 66 bc 6b 54 11 3a f0 29 6c bd
       -0.044360872 -0.014078498 0.00055438903 -0.057657182
000070 de e3 bc bd 50 30 32 3e f9 7a 6c bd 5d cb d6 3d
       -0.0922315 0.17401242 -0.057734463 0.10488007
000080 95 38 03 3d 40 7e 8a 3d 1e 91 a1 bd e3 16 57 3d
       0.032036383 0.067623615 -0.07889007 0.05251206
000090 18 40 a6 3d 9f ec 31 3d 8c 92 3e be a1 cd 66 3d
       0.08117694 0.04343855 -0.1861059 0.056348447
0000a0 a4 48 c3 3d ae 0c 86 bd cc 33 00 3e 3f 50 35 3d
       0.095353395 -0.06545387 0.12519759 0.04426598
0000b0 54 32 d2 bd a7 49 94 bd 71 e3 3d bd 7f 89 f2 3d
       -0.102635056 -0.072406106 -0.046359483 0.118426315
0000c0 08 35 df 3d cc 59 5e be a8 63 f3 bd b6 3d 0b be
       0.10898787 -0.21713942 -0.11884242 -0.1359776
0000d0 12 1c 03 3d 1d 38 e5 3c 8b 00 c1 3d 63 34 8a bd
       0.03200919 0.027980858 0.09423932 -0.06748273
0000e0 76 8d 65 bd 4a 1d 84 bd 28 74 3a be 54 5f c3 ba
       -0.05604311 -0.06450899 -0.18208373 -0.0014905729
0000f0 2d 76 d7 bc 38 19 04 3e 02 63 37 be 8c ef 93 3d
       -0.026301468 0.12900245 -0.17908862 0.07223424
000100 d3 b9 5c 3d e4 8f 1e bd 18 29 30 3d 8e 23 86 bd
       0.053888153 -0.038711444 0.04300794 -0.0654975
000110 68 ba 9f 3d dd f5 14 3e 23 9d 12 3e 11 c7 25 3e
       0.07799226 0.14546914 0.14317755 0.16189219
000120 c3 8f ef 3d b2 38 c7 bd 7a 71 ad bd 24 53 a9 bc
       0.11697342 -0.09727611 -0.084689096 -0.020669527
000130 c2 27 e7 bc f4 58 94 3d 9b d0 15 bd 31 cf 38 3d
       -0.0282172 0.07243529 -0.036575895 0.045119468
000140 a7 31 41 3e 83 3a 10 3d ae c1 80 bd 62 48 f1 3d
       0.18866597 0.03521205 -0.062869415 0.11781384
000150 0d d9 af bc 02 ed c4 3d 44 e1 72 3d f0 e7 c5 3c
       -0.021465803 0.09615518 0.05929686 0.024158448
000160 af 40 a4 3c 06 82 83 bb ed 1c 6e 3c eb 6b ec 3d
       0.020050375 -0.0040133027 0.014533264 0.11544021
000170 fa 46 07 3e 39 cc 0a be 31 3c d3 bd 11 16 5b bc
       0.13210669 -0.13554467 -0.10314215 -0.01337196
000180 9a 57 d1 bd 72 50 ba 3d ac de f1 bd 33 cd 39 be
       -0.10221787 0.09097375 -0.118100494 -0.18144684
000190 3d 2c 18 3c f6 6e f9 3d 3c 28 3c 3c 87 a1 be bd
       0.009287891 0.12179367 0.011484202 -0.09308153
0001a0 2b dd 8e 3d 20 32 7e bd af 61 8e bd 90 2c cd 3c
       0.06975778 -0.06205952 -0.069522254 0.025045663
0001b0 bb 29 9f 3d 3a 64 6c be a2 ac 33 3e 9f 13 02 be
       0.07771631 -0.23085108 0.17546323 -0.12702797
0001c0 07 6a 5d bd ca d1 70 bc 7c 33 df 3a ec a8 03 3e
       -0.054056194 -0.014698455 0.0017028893 0.12857407
0001d0 d4 19 92 bc 64 5c a4 bd 11 ff 65 be 9e be 20 3c
       -0.017834581 -0.080254346 -0.22460581 0.009811072
0001e0 a3 2e 8d bd 20 88 40 bd 67 75 3e 3e 01 a6 fd bb
       -0.06893661 -0.04700482 0.18599473 -0.0077407365
0001f0 da 68 9d bd e6 2a 6e 3d 48 ee b0 bd 7b a1 1f be
       -0.076860145 0.05814638 -0.086391985 -0.15588944
000200 f9 8f d6 3c ef bd e7 3d 3a b3 a2 3a 90 73 38 be
       0.026191698 0.11315524 0.0012413033 -0.18012834
000210 1f c6 06 be 79 18 c2 3c 39 9d 06 be 16 a2 b9 3d
       -0.13161515 0.02369331 -0.13145913 0.090641186
000220 8a 49 f2 3d f8 67 59 3e 13 0c 56 3e 3a c3 29 bd
       0.11830433 0.21231067 0.20903043 -0.04144595
000230 a8 53 09 3e 1b ca c8 3d ca 56 d8 3d 20 48 d4 bd
       0.13410819 0.098041736 0.10563429 -0.10365319
000240 08 5d 4b 3d 53 d2 a2 bd 0f 07 8f 3d cb 46 d0 bc
       0.04964927 -0.079502724 0.06983768 -0.025424382
000250 13 ce 7a 3c f0 cb 03 be 61 6f d3 3d 64 cf 4d bd
       0.015307921 -0.12870765 0.10323978 -0.05024661
000260 e3 b7 d5 3d 2e 80 e0 bd e7 10 c4 bd 9d b2 80 3d
       0.10435464 -0.10961948 -0.09573536 0.06284068
000270 32 ec 28 3d 31 87 61 bc 69 b1 91 3d 57 bf d6 bc
       0.04124088 -0.013765142 0.071139164 -0.026214285
000280 aa 47 bf 3d 1e e9 59 3a d6 0e dc bc 2b 02 84 3b
       0.09339841 0.000831263 -0.026862543 0.0040285788
000290 13 99 7b bc 08 bd d9 3d 8b d4 24 3d fb 35 40 be
       -0.01535632 0.10631758 0.04024176 -0.18770592
0002a0 60 25 d6 bc 92 9d 5a 3e d2 9d bc 3d 7f b4 1b bd
       -0.026140869 0.21349171 0.09209789 -0.03801393
0002b0 12 fc c7 bd f0 bf 25 be c0 fd 02 3e 2f 4a c6 3d
       -0.097648755 -0.161865 0.1279211 0.09682118
0002c0 79 2d a8 bb 6d 9b e1 bc dc 57 2b be c1 fe 73 bd
       -0.005132374 -0.027539933 -0.16732734 -0.059569124
0002d0 15 7b 39 3e 60 32 30 3d bf 96 05 3c 1d a0 fd 3d
       0.18113358 0.04301679 0.008153616 0.12384055
0002e0 04 b7 d5 bd 5b 50 56 bd 34 15 a1 3c 11 4e 36 3e
       -0.10435298 -0.052322727 0.01966343 0.17803217
0002f0 9a 28 d4 bd 6b 09 1b 3e 89 c7 a1 bd 46 81 19 3e
       -0.10359307 0.15140311 -0.078993864 0.1499072
000300 22 0e 1d be fb 16 9d 3d b6 1f c2 bd 4e 6f ec 3d
       -0.15337422 0.07670399 -0.09478705 0.11544667
000310 fa 99 9e bd e8 29 8d 3d b2 87 81 bd 30 02 14 bc
       -0.077442124 0.068927586 -0.0632471 -0.009033725
000320 56 2e 38 bd 69 29 43 be f7 9d 60 bc 6e b6 0a be
       -0.044966064 -0.19058765 -0.013709537 -0.13546154
000330 96 45 99 bd 26 5f 49 bb 9e a0 e5 bc 38 8c 6c 3c
       -0.074839756 -0.003072688 -0.02803069 0.014437728
000340 e1 d5 e7 3d 9b f3 80 bd 27 3b 7a 3d 70 7a 02 be
       0.11320091 -0.06296464 0.06109157 -0.12742019
000350 61 6f 83 3d af f5 d5 bc 41 c6 9a 3d bc 76 ad 3d
       0.06417728 -0.026118128 0.07557345 0.084699124
000360 fc 15 56 bd 78 89 b4 3c d1 73 e3 bb 11 16 ad 3c
       -0.05226706 0.022038206 -0.0069412966 0.021128686
000370 73 ff a2 3d 95 ad 52 3e a3 aa 65 3b 57 cc 8c 3d
       0.07958879 0.20574029 0.0035044334 0.06874912
000380 21 ec ca bb 27 5d 7b bd 27 23 83 3c b0 c4 f8 3d
       -0.0061926995 -0.061368134 0.016007973 0.1214689
000390 1c e7 f4 bd 27 2c bd bd 77 b4 15 3e f1 de 63 bd
       -0.11958143 -0.09236937 0.14619623 -0.055632535
0003a0 31 c0 24 3e df 3d bf bd c5 40 ed bd 6e b6 84 bd
       0.1608894 -0.09337973 -0.115846194 -0.06480108
0003b0 3e 15 c9 3d 41 c7 29 be f9 69 0d ba f1 98 08 3e
       0.09818505 -0.16579916 -0.00053945143 0.13339593
0003c0 06 ae f7 bd c3 75 df 3b c0 7e a3 3d 7f 07 19 3e
       -0.12093739 0.006819458 0.0798316 0.14944266
0003d0 1e 74 d7 bd 79 d0 f5 bd d4 fd b9 3c 19 b1 a2 3d
       -0.105201945 -0.12002654 0.022704042 0.07943935
0003e0 13 7a 12 3d 67 c4 42 bd d9 00 19 3e 18 55 22 be
       0.03576095 -0.047550585 0.1494173 -0.15852773
0003f0 e1 db 34 3e 7a ba 1b be 25 8f d7 3d e4 34 fd bc
       0.17662002 -0.15207854 0.105253495 -0.03090901

linear2.bias f4 [64]
000000 bb 39 85 bd 58 01 26 3d 32 2f 84 3d a7 e0 9f b9
       -0.06505152 0.040528625 0.06454314 -0.00030494222
000010 21 f1 4b 3e ee 95 a3 bc 68 4f 41 bd b0 0c 77 bd
       0.19916202 -0.019968953 -0.04719487 -0.060314834
000020 51 f3 ff 3d 2d a2 23 bd 52 7a bd bc 3e 68 85 bd
       0.12497581 -0.039949585 -0.023129616 -0.06514023
000030 a9 91 74 3d 68 2f 7d 3d 75 9f 2a 3e 6b d1 af bd
       0.059709225 0.06181279 0.1666239 -0.08584865
000040 56 58 88 3d 9d ef b5 bd 30 c4 93 3c e4 5f 85 3e
       0.06657474 -0.08883593 0.018037885 0.2604972
000050 0f 59 8d bd 5c 17 08 3e fa 87 84 3d d0 b3 dd 3c
       -0.06901752 0.13290161 0.06471248 0.02706328
000060 7f 0c 00 bd 0d 62 30 3e 62 df 96 3d 27 d1 91 bc
       -0.031261917 0.17224903 0.07366826 -0.017799927
000070 00 f6 85 3d 27 0a 1b bd 8e 7b 01 bd ff 9e 1f 3e
       0.065410614 -0.03785148 -0.03161197 0.15587996
000080 0b 2d 00 3e db dc dd bd 0b b8 32 3e ee 6e c7 3c
       0.12517183 -0.108331405 0.1745302 0.024344888
000090 96 1e 22 3e 2b 4a 86 3d f0 1e 2f 3d 0d e2 11 3e
       0.1583198 0.06557115 0.042754114 0.14246388
0000a0 3a 3a 61 3e 70 35 dc bc 51 e8 90 3d b3 f8 c8 bc
       0.21994868 -0.02688095 0.07075561 -0.024532652
0000b0 c8 ea 20 3d 5d 9d f1 bc d1 7b 84 3d db 36 d7 3c
       0.039286405 -0.029493982 0.064689286 0.026271274
0000c0 40 59 91 3d 91 0a 0a 3e de b2 b1 bd e1 0d a9 3d
       0.07097101 0.13480593 -0.08676694 0.082546
0000d0 0b 74 8c bc ac f2 f9 ba 84 aa cb bd dd 6a 03 3e
       -0.017145177 -0.0019069514 -0.09944633 0.12833734
0000e0 fe 9f 16 3e 42 68 10 3c 03 49 a6 3b c1 f9 34 bd
       0.1470947 0.0088139195 0.0050746216 -0.044183496
0000f0 ee 14 84 3d 6a e5 02 bd e8 79 cc bd 10 d8 ad 3b
       0.064493045 -0.031957068 -0.09984189 0.0053052977

linear3.weight f4 [10, 64]
000000 99 24 c0 3d da f4 b4 3e d4 a4 64 be d5 b5 fe bd
       0.093819804 0.35343057 -0.22328502 -0.124370255
000010 ed 40 9f bd d8 5e a2 3d 98 89 98 be 6c 70 6e bd
       -0.077760555 0.07928246 -0.29792476 -0.058212683
000020 c4 4a 51 3e ef 5b a9 3e 95 a8 50 be 6d 6e 49 3e
       0.20438677 0.33077952 -0.20376809 0.1967103
000030 36 c2 52 be e8 8d 11 be 36 e3 80 bd cf 39 a7 3d
       -0.20581898 -0.14214289 -0.06293337 0.08165323
000040 90 3c 50 be aa a0 0d 3e 7c 81 2f bd a0 20 ed be
       -0.20335603 0.1383082 -0.042848095 -0.46313953
000050 ce df 8b 3c 8a ce 12 bf f6 e2 1b be 0f c9 b9 be
       0.017074492 -0.57346404 -0.15223297 -0.36286208
000060 b2 56 b0 bb 36 4d a4 bd 19 70 3b be 97 ba b4 3d
       -0.0053814286 -0.08022539 -0.1830448 0.08824652
000070 35 29 1e bb 5f d6 e8 be a2 33 9d bd 3a b4 a1 39
       -0.0024133448 -0.45476052 -0.07675864 0.00030842592
000080 c8 85 56 3e ca 01 a3 3d af dc 04 3e e9 d1 38 be
       0.20949471 0.079593256 0.12974809 -0.18048824
000090 63 48 28 3e 10 ae 9a 3e 15 4e 29 be be 65 a1 be
       0.16433863 0.30210924 -0.16533692 -0.31522936
0000a0 0e e3 27 bd 5a 68 0c 3e 53 ca c2 3e 70 32 18 be
       -0.04098802 0.13711682 0.38044986 -0.1486299
0000b0 20 8e a7 3e f1 25 35 be fe e1 87 3e 03 ee bd 3e
       0.3272562 -0.17690255 0.26539606 0.3709565
0000c0 7a 0d 17 3e 63 81 b4 be 1c 4a cd 3e 75 d9 7e 3e
       0.14751235 -0.35254964 0.40095603 0.24887641
0000d0 b6 37 27 3e 9a 37 ff 3d 6d 2d d7 3e e3 17 81 3d
       0.16329846 0.12461777 0.42026845 0.06303384
0000e0 3f 5a c8 be d2 4b d4 3d 71 41 38 be ff 31 8b 3e
       -0.39131352 0.10366024 -0.17993714 0.27186581
0000f0 f1 e8 15 3e 8d c8 a8 bd 03 4a 7c be 38 eb 57 be
       0.14639641 -0.08241377 -0.24637608 -0.21085823
000100 bc 5a 9e 3d 0a 32 0e be 27 c8 89 3e 3f fd 49 3d
       0.0773215 -0.13886276 0.26910517 0.04931378
000110 78 c6 2b be 11 c8 01 bf d6 32 17 3e 71 72 d9 3d
       -0.16774929 -0.506959 0.14765486 0.10617531
000120 f9 d7 2a 3e bd 13 25 bd 3c b6 dd 3d 32 5e 18 be
       0.1668395 -0.040302027 0.10825774 -0.14879683
000130 9a fd 5f be 5d e6 56 3e 7e 2a 05 3f e0 2d b8 3c
       -0.21874085 0.20986314 0.5201796 0.022482812
000140 df 6c 22 3e 9e 4d 69 be 6d ea b2 3e 48 2d f6 3e
       0.15861844 -0.22783515 0.34944478 0.48081422
000150 49 2b 83 bd ba c6 bc 3d f4 5e ff 3d 54 52 f4 3e
       -0.0640474 0.092175916 0.12469283 0.4771906
000160 a9 52 46 be 11 34 12 3f 13 6e cc 3d df 11 54 bd
       -0.1936747 0.571107 0.099819325 -0.051774856
000170 76 45 93 bd 8d 49 b6 3e 19 0c b6 bc 92 c5 84 3d
       -0.07190983 0.3560299 -0.022222565 0.06482996
000180 32 04 50 be 82 9f 61 bd fe c7 4c be e0 5b a1 bd
       -0.203141 -0.05508376 -0.19998166 -0.07878852
000190 e0 bf d8 3e 55 40 d0 be 0c 16 48 be 37 7f 04 be
       0.4233389 -0.4067408 -0.1953966 -0.12939154
0001a0 c2 9c 98 3e be b9 08 bd 32 4c db be 96 6c d2 bd
       0.29807097 -0.033380263 -0.4283157 -0.102746174
0001b0 f4 f1 0e be 6f 2a 5c 3e 27 30 cd be 45 f7 84 be
       -0.13959485 0.21500562 -0.400758 -0.25969902
0001c0 f8 bc b6 bd 83 4c 61 be a6 bc 9c 3d ec 0a 00 bf
       -0.08922762 -0.22001843 0.07653169 -0.50016665
0001d0 d7 6d 5e be f2 44 fa 3d a0 d9 81 bd fb f3 db bd
       -0.21721588 0.122201815 -0.06340337 -0.10739895
0001e0 61 8c 48 be d9 78 de be a8 f2 1b 3c 9a 04 1c be
       -0.195848 -0.43451574 0.009518303 -0.1523613
0001f0 85 b9 86 bc f9 f8 51 3e cd 73 e6 3d cc cf af 3e
       -0.016445884 0.20505132 0.11252556 0.34338224
000200 1f 09 b3 be f6 bf 93 3e 84 d0 ab be 47 a3 bf 3d
       -0.34967896 0.28857392 -0.33557522 0.093573146
000210 e3 5f 8c be c5 0e e1 3d ff 57 8b 3e 3d a6 00 be
       -0.27416906 0.10989145 0.27215573 -0.12563415
000220 6c 5a 8c bc 17 bc d9 3e 58 a1 84 be 28 89 96 bd
       -0.01713296 0.42526314 -0.25904346 -0.07350379
000230 7d b0 31 3e 5f 97 c9 3e 08 78 1a 3d 5a 4e b9 bd
       0.17352481 0.393733 0.037712127 -0.090481475
000240 92 48 10 bc 20 48 53 be 1c 0a b4 be ba c8 d7 3c
       -0.008806365 -0.20632982 -0.35163963 0.026340831
000250 d2 67 4d bc 93 87 b3 be 59 01 03 be ee 28 28 bc
       -0.01253696 -0.35064372 -0.12793483 -0.010263665
000260 d2 9c 93 3b 1c 6c c9 3d 0c f9 11 3f 13 07 b3 bc
       0.0045047784 0.09835073 0.5702064 -0.02185396
000270 45 fc e9 3d c3 60 9c 3e 55 8b 04 3f 97 05 85 bd
       0.1142507 0.30542573 0.51775104 -0.06495207
000280 57 58 5a 3e 8d ce 37 3d ee 6b 46 3e 4a e7 fe be
       0.21322761 0.044874717 0.1937711 -0.49785835
000290 45 56 de bc 85 91 7f bd 91 9e c4 3e fd 85 41 be
       -0.027140746 -0.062394638 0.38402227 -0.18898769
0002a0 52 12 8a 3e e6 99 29 3c 5e ab cf 3d 0f 41 f9 3d
       0.26967102 0.010351634 0.101401076 0.12170612
0002b0 6a ad b2 bd a9 f0 3e be 42 7a 5e 3e 53 a6 1f be
       -0.08724482 -0.18646492 0.21726325 -0.15590791
0002c0 bb 5a b2 bd 75 22 1d 3d 99 aa ba bd 6d 14 c4 bd
       -0.08708712 0.03836294 -0.0911457 -0.095742084
0002d0 c0 cb 81 3e 41 01 4b bd 22 eb e3 bd e4 c2 1a 3d
       0.2535076 -0.049561743 -0.111288324 0.03778352
0002e0 e8 bd 8c be dd ce 4a 3d 08 2d aa 3e 55 42 bd 3d
       -0.27488637 0.049513686 0.3323748 0.092411675
0002f0 8e d0 39 3e 67 f4 d0 bd 43 20 1b 3f 02 bf d2 bd
       0.18145964 -0.10202866 0.605961 -0.10290338
000300 d3 e6 c2 be 6e c7 c4 bd e2 74 a2 3e 83 33 36 3e
       -0.3806673 -0.09608351 0.317298 0.17793088
000310 31 aa 5d be 01 05 53 be b6 ec 15 3f 92 85 ab 3d
       -0.21646954 -0.20607378 0.5856432 0.08375086
000320 a1 c0 3a bd 97 ac 16 be 44 3e 71 be 62 a5 d6 3e
       -0.04559386 -0.14714275 -0.23558909 0.41923052
000330 de 36 bc be 04 8a 54 3e a0 aa 6d be f3 17 2e 3c
       -0.3676061 0.20755774 -0.2320962 0.010625827
000340 4d 8c e4 bd ab f0 01 3d 47 1d 8e 3e 5e 59 33 3e
       -0.11159573 0.03172366 0.27756712 0.1751456
000350 b5 5d 6d 3d 5a 88 ec 3d 35 d2 7e 3d 47 d1 52 be
       0.057950694 0.115494445 0.062212188 -0.20587645
000360 48 67 99 3e fa e4 b3 be f0 65 56 bd 39 33 7d bd
       0.2996161 -0.35135633 -0.05234331 -0.061816428
000370 7c 3d 8c 3c 56 4f 99 3e 55 99 d0 bd f3 45 e3 bd
       0.017119162 0.2994334 -0.10185496 -0.11097326
000380 76 6b 16 3e fa 43 42 3d 4e 09 8e bd 2d f2 28 3e
       0.1468943 0.04742811 -0.069353685 0.16498633
000390 2e 67 7e be fb 89 db 3d e7 4c cd 3d 0f ca cc 3e
       -0.24844047 0.10719677 0.100244336 0.39997908
0003a0 59 13 51 3e d9 8d 31 bd 35 da 49 be 62 9f 91 be
       0.20417537 -0.043348167 -0.19712146 -0.28441912
0003b0 fb b9 73 be e9 bc b2 3e 6d 31 37 3e f5 a4 93 3e
       -0.23801415 0.34909752 0.17889948 0.2883679
0003c0 c9 2e 93 3d f0 79 cd be 4e c7 a3 bd dc 6b 36 be
       0.07186658 -0.40132093 -0.07996999 -0.17814583
0003d0 8e 8b 8d bb 7b 7d 7a bd d9 f1 9c bd 34 a3 9d be
       -0.0043196147 -0.061154824 -0.07663316 -0.30788577
0003e0 30 82 e8 3c 75 d6 af 3e 87 88 ba bd 3c cb 67 bd
       0.02838239 0.34343305 -0.09108072 -0.056590304
0003f0 5f 4c a3 bc 35 66 6a 3d a3 f8 06 3f b0 c9 16 3e
       -0.019933878 0.05722638 0.5272314 0.14725375

linear3.bias f4 [10]
000000 69 a3 97 be 20 af 8d 3e 78 90 5e be 46 f2 fc bd
       -0.2961686 0.27672672 -0.21734798 -0.123508975
000010 af 08 bf 3d 57 c9 af 3e b7 4b 75 bd db 38 fe 3d
       0.09327828 0.34333298 -0.05988666 0.12413188
000020 ab 2b 92 be 25 07 85 3b
       -0.2854894 0.0040596896
